models/Best_2020-01-11_10-39-32.pth (torch_old, 285319 bytes, 3 tensors)

mlp.0.weight f4 [300, 235]
0	0xbd887386	-0.06662659
1	0xbcc4beb0	-0.024016708
2	0xbc3e0480	-0.011597753
3	0x3d0ab878	0.03386733
4	0xbdddca5b	-0.10829612
5	0xbde31ad7	-0.11089104
6	0xbdde013d	-0.1084008
7	0x3c1b4e7b	0.00947916
8	0xbc9c50f0	-0.019081563
9	0xbd2c3dcd	-0.042051125
10	0xbc7cd3ca	-0.015431354
11	0xbbc13508	-0.0058962144
12	0x0063e330	9.173214e-39
13	0xbba1c96e	-0.0049373424
14	0xbbcce8c8	-0.0062533356
15	0xbdfc5d63	-0.123224996
16	0xbd7d99af	-0.061914142
17	0x397ec305	0.00024295978
18	0xbc9c4664	-0.019076534
19	0x39fda208	0.00048376643
20	0x000612b6	5.57725e-40
21	0xbbdbdbe5	-0.006709563
22	0x00761548	1.0844223e-38
23	0x80571242	-7.996238e-39
24	0xbcc162f0	-0.023606747
25	0xbe12e550	-0.14345288
26	0x3ab30473	0.0013657942
27	0xbb226575	-0.0024779711
28	0x801fea67	-2.930988e-39
29	0x3d49330c	0.049120948
30	0xbab62742	-0.0013897198
31	0xbda552b6	-0.080724165
32	0x3d19e1cd	0.037568856
33	0xbd3dd7c6	-0.046348356
34	0x3bfc579e	0.0077008745
35	0xbd5b5ef6	-0.05355736
36	0x00771699	1.093653e-38
37	0x3c57314d	0.013134313
38	0xbd31de4a	-0.043424882
39	0x3bd5f1e5	0.00652908
40	0x3d490e80	0.049086094
41	0x3d9ea381	0.0774603
42	0x3d5fb45a	0.054615356
43	0xba030d36	-0.0004999222
44	0x00550117	7.806408e-39
45	0xbbde3e32	-0.0067823166
46	0xbe0107be	-0.1260061
47	0xbc133f23	-0.008987221
48	0x007d44c8	1.1504111e-38
49	0x3d04e844	0.03244807
50	0x000377dc	3.18504e-40
51	0x8062e312	-9.081336e-39
52	0x3d911636	0.070843145
53	0x3d3bd4db	0.04585729
54	0x80605e4e	-8.850038e-39
55	0xbd313779	-0.043265793
56	0x003250f7	4.62082e-39
57	0x3c3d7c6d	0.01156531
58	0xbd1b4703	-0.03790952
59	0x3b758432	0.0037462828
60	0x001add57	2.467125e-39
61	0xbda57da3	-0.08080604
62	0x3d6190f9	0.055069897
63	0xbd8dbded	-0.06920991
64	0xba580185	-0.00082399725
65	0x3c06abd6	0.00821968
66	0xbc00e951	-0.007868127
67	0xbbf076f1	-0.0073383977
68	0x800d4c89	-1.221317e-39
69	0xbd1e3555	-0.03862508
70	0xbd640fda	-0.05567918
71	0xbc2318b9	-0.009954625
72	0x3e130bb7	0.14359938
73	0x3dc10ad9	0.09425897
74	0x005376b1	7.664925e-39
75	0xbda3dbb5	-0.0800089
76	0xbda91024	-0.08255032
77	0x002858e0	3.705302e-39
78	0x808b0152	-1.2765608e-38
79	0xbd2b8611	-0.041875903
80	0x3c882595	0.016619483
81	0x3b3fc43e	0.0029261257
82	0x3b5ec77e	0.0033993418
83	0x3d4d00e8	0.050049692
84	0xbb90fac3	-0.0044244244
85	0x3d8a6b5e	0.0675876
86	0xbb702c60	-0.0036647543
87	0xbc2f463e	-0.010697899
88	0x3da7f238	0.082004964
89	0xbb61bfe4	-0.003444665
90	0x002851d2	3.702771e-39
91	0x3d38dd26	0.04513278
92	0x3c2b6170	0.010460243
93	0xbb5ea8fd	-0.0033975237
94	0x3ce98414	0.028505363
95	0x3d22f549	0.039784703
96	0x3d2c8973	0.04212327
97	0xbcfa612b	-0.030563911
98	0x3c503833	0.012708711
99	0x3c47f3d0	0.0122041255
100	0xbd8ae4f0	-0.067819476
101	0xbc02ebb2	-0.007990764
102	0xbd2cb363	-0.042163264
103	0xbd797d77	-0.06091067
104	0xbc0adb72	-0.008475171
105	0xbd8ab28a	-0.06772335
106	0xbdac14fc	-0.0840244
107	0x3d316849	0.043312345
108	0x806d6cd3	-1.0049108e-38
109	0xbd830ff7	-0.063995294
110	0x3bc257e2	0.0059308866
111	0x3c02e2e9	0.00798867
112	0xbca9dbc5	-0.020734677
113	0x000430fc	3.84914e-40
114	0xbc646a6e	-0.01394139
115	0xbd23a462	-0.03995169
116	0xbccd75cb	-0.025080582
117	0x007330e7	1.0578625e-38
118	0x3c1d79f2	0.009611594
119	0xbc255695	-0.010091444
120	0xbcd1f420	-0.025629103
121	0xbd00a6aa	-0.031408943
122	0x00663209	9.38517e-39
123	0xbd4c5c38	-0.049892634
124	0x3c5bb51b	0.013409878
125	0xbc67e6c1	-0.014154137
126	0xbc647b00	-0.013945341
127	0x8033af8b	-4.746583e-39
128	0xbd3b7fe6	-0.04577627
129	0x3bb4b4fd	0.0055147395
130	0xbdac71c2	-0.08420135
131	0xbbb9dd5d	-0.0056721405
132	0x801f0a02	-2.85049e-39
133	0xba6561cd	-0.000875023
134	0x3df527b2	0.11970462
135	0x0087bd55	1.2465712e-38
136	0xbcb5ae7c	-0.022177927
137	0x3bddfc04	0.0067744274
138	0x3db03ecd	0.08605728
139	0x3b38ed8f	0.0028217768
140	0x3b83be4a	0.004020487
141	0xbd44b2be	-0.048022024
142	0x00066ad8	5.89341e-40
143	0x8056f3ab	-7.985264e-39
144	0x00396b69	5.273155e-39
145	0xbc4c7b62	-0.012480589
146	0x80455063	-6.365487e-39
147	0x80400d93	-5.882341e-39
148	0x3d7fd9c3	0.062463533
149	0xbd2d78b3	-0.042351436
150	0xbcae026b	-0.021241387
151	0x38f326d8	0.00011594378
152	0x3b5c69e1	0.0033632445
153	0x3c533883	0.012891891
154	0xbc34b44f	-0.011029317
155	0x3d752b1f	0.059855577
156	0x3be8595b	0.00709073
157	0x0001a781	1.51925e-40
158	0xbce263d3	-0.02763549
159	0xbc143c3d	-0.009047565
160	0x00795540	1.1142677e-38
161	0xb99a8b68	-0.00029477035
162	0xbd800023	-0.06250026
163	0x800f706f	-1.417866e-39
164	0x814dfff0	-3.783618e-38
165	0x80145b70	-1.869512e-39
166	0x3c07829f	0.008270889
167	0x3a6f3208	0.00091245817
168	0xbcdcff0f	-0.02697709
169	0x3d1b05a3	0.037847172
170	0x3d9193f2	0.071082965
171	0x3d8c1fc3	0.068419956
172	0x3c827498	0.015924737
173	0xbc234ce8	-0.009967066
174	0x3d4fff60	0.050780654
175	0xbd803f89	-0.06262118
176	0x3be647a7	0.0070275846
177	0xbabf8de6	-0.0014614433
178	0x8079123d	-1.1118638e-38
179	0x3cacf064	0.021110721
180	0xbc780e60	-0.015140146
181	0xbbaf20b8	-0.0053444766
182	0x3c8935e4	0.01674933
183	0xbb9c116d	-0.0047628195
184	0x002f4d82	4.344073e-39
185	0xbc53affd	-0.012920377
186	0x3ca9ef43	0.020743972
187	0xbcc1d97e	-0.023663279
188	0x3ab79faa	0.0014009376
189	0xbd909f35	-0.07061616
190	0x0051e050	7.519143e-39
191	0x3bc96b4f	0.0061468254
192	0xbd68cd8c	-0.05683665
193	0xbba8d4ea	-0.0051523345
194	0xbd0aad8b	-0.03385691
195	0x8080204c	-1.176653e-38
196	0x3be46bab	0.006970843
197	0x3d421673	0.04738469
198	0x3abdc27c	0.0014477517
199	0x3d702ccd	0.058636475
200	0xbcf5909c	-0.029976182
201	0xba0679a0	-0.0005129818
202	0xbd82d47e	-0.06388186
203	0x808c9206	-1.2909353e-38
204	0x3a911186	0.0011067844
205	0x3b81e2ac	0.003963789
206	0xbce8fdff	-0.028441427
207	0x008f7041	1.3172745e-38
208	0x3db92845	0.09040884
209	0xbd3284cc	-0.043583676
210	0x80041359	-3.74283e-40
211	0x8016a367	-2.078999e-39
212	0xbc685383	-0.014180067
213	0xbaa1641a	-0.0012313158
214	0x000e07b0	1.288455e-39
215	0x3d06c109	0.032898936
216	0x806ad50c	-9.81099e-39
217	0x3cac8931	0.021061512
218	0x3c636d67	0.013881064
219	0x8044755e	-6.286917e-39
220	0x3dbb5af6	0.09148209
221	0x8049d684	-6.780945e-39
222	0x8097c2b4	-1.3937006e-38
223	0x802d9611	-4.186431e-39
224	0x805d7310	-8.581978e-39
225	0xbb1dbcae	-0.002406876
226	0xbcc76f05	-0.02434493
227	0x3ca38d11	0.019964727
228	0x3d19dc07	0.03756335
229	0x006e014f	1.0102374e-38
230	0x3cb4da7d	0.02207684
231	0xbd5fd678	-0.054647893
232	0xbbbcbc61	-0.005759761
233	0xbe12d8ab	-0.14340465
234	0xbd224acc	-0.039622113
235	0xbbc11f0a	-0.0058935927
236	0x3d205507	0.03914359
237	0x3c0f2901	0.008737803
238	0xbd8280f4	-0.06372252
239	0xbd7b4c9f	-0.06135237
240	0x3d5be891	0.05368859
241	0x3d3e4e21	0.04646123
242	0x3d82b6d1	0.06382526
243	0x3d927ae3	0.07152345
244	0x3d022e89	0.03178266
245	0x3cca6856	0.024707954
246	0x3c50c49f	0.012742191
247	0x3a8f7c44	0.0010947068
248	0x3ae05ca6	0.0017117455
249	0xbbb04a0b	-0.0053799204
250	0xbaef5fa1	-0.0018262753
251	0x3cc2908a	0.023750562
252	0xb9a38680	-0.00031189993
253	0xbc965a8c	-0.018353723
254	0xbd27bd2b	-0.04095189
255	0x3c0a47a4	0.008439932

mlp.0.bias f4 [300]
0	0xbc77ad60	-0.015117019
1	0x3ca88f2b	0.02057608
2	0x3d85717e	0.065157875
3	0x3e0ce4f3	0.13759212
4	0x3de1268c	0.1099368
5	0x3de879bd	0.11351345
6	0x3dc79315	0.097448505
7	0xbd8b0e41	-0.06789828
8	0x3d87acba	0.06624742
9	0xbde8534f	-0.11344015
10	0x3da561e1	0.080753095
11	0x3dde84a1	0.10865141
12	0xbdb8c889	-0.09022624
13	0x3de62faf	0.11239564
14	0x3d532e2f	0.051557716
15	0xbd57a698	-0.05264911
16	0x3df9a052	0.12188782
17	0xbdb6f1a7	-0.0893281
18	0x3db13007	0.086517386
19	0x3db78974	0.08961764
20	0x3cb963a0	0.022630513
21	0x3d5c7108	0.053818733
22	0x3db2ac44	0.08724263
23	0x3db86faf	0.09005677
24	0xbbaf7555	-0.0053545632
25	0x3df04673	0.11732187
26	0x3d85deeb	0.06536659
27	0xbdcc486f	-0.09974753
28	0x3d7307cc	0.059333608
29	0x3ce44fd3	0.027870094
30	0x3db4701a	0.08810444
31	0x3ded33ee	0.115821704
32	0xbd6f40d4	-0.058411434
33	0x3d6a6877	0.05722853
34	0x3d29e50f	0.041478213
35	0x3d83075d	0.06397889
36	0x3ded76b8	0.115949094
37	0x3d6c9479	0.057758782
38	0x3d3aa7be	0.045570128
39	0xbd284573	-0.041081857
40	0x3d3e3db0	0.04644555
41	0xbb16661b	-0.0022949043
42	0x3dfa0d30	0.122095466
43	0x3ae81389	0.0017706017
44	0x3daee34f	0.085394494
45	0x3d459182	0.04823447
46	0xbcae469a	-0.0212739
47	0x3dcc8324	0.099859506
48	0x3dbef539	0.09324116
49	0xbcfdbda1	-0.030974211
50	0x3dce431a	0.10071392
51	0x3dce1e0d	0.100643255
52	0x3d3ccd82	0.046094425
53	0xbdbc4409	-0.09192664
54	0x3c9bbe3c	0.01901161
55	0x3d93da59	0.07219381
56	0x3db55bc0	0.088553905
57	0x3dbc7592	0.09202112
58	0x3dc7705e	0.09738229
59	0x3d8b9db8	0.06817192
60	0x3d9311c4	0.07181123
61	0x3d9b8325	0.07593373
62	0xbdeb0a3b	-0.11476561
63	0xbcf274fd	-0.0295968
64	0xbcc7f794	-0.024410047
65	0x3df0f5dc	0.11765644
66	0xbd6babd3	-0.05753691
67	0xbe035796	-0.1282638
68	0xbd9ecffa	-0.07754512
69	0x3dd9bcc2	0.10631706
70	0x3d5d1ae1	0.05398071
71	0x3e062659	0.13100566
72	0xbe156589	-0.14589514
73	0x3d3aa2fb	0.045565587
74	0x3dcca767	0.09992867
75	0xbe0b047e	-0.13575932
76	0xbd97b74d	-0.07408009
77	0x3dae84f8	0.085214555
78	0x3cca26b4	0.024676658
79	0x3dc27cb2	0.0949644
80	0xbdb547fa	-0.08851619
81	0x3da7d33d	0.081945874
82	0x3d2f1532	0.042744823
83	0xbdd91d92	-0.10601343
84	0x3cd1ded1	0.025618942
85	0xbdeeeae4	-0.116658956
86	0x3d6f0307	0.058352496
87	0x3df85577	0.12125676
88	0x3df03840	0.11729479
89	0xbdb16254	-0.08661333
90	0x3dfa3d59	0.122187324
91	0xbd32921d	-0.043596376
92	0x3df91d4e	0.121637926
93	0xbdb31edb	-0.087461196
94	0xbd4779c2	-0.0487001
95	0xbdbf79cf	-0.09349405
96	0x3d7d5312	0.0618468
97	0x3db36fea	0.0876158
98	0x3d0caf11	0.034346644
99	0x3dd2ab4c	0.102865785
100	0x3db0c8d4	0.08632055
101	0x3d85058a	0.06495197
102	0x3dae5ee6	0.08514194
103	0x3c8fd4bc	0.017557494
104	0x3c33c633	0.010972547
105	0x3bd8dc01	0.0066180234
106	0x3d917d94	0.0710403
107	0x3d03a31a	0.032137968
108	0x3dccad45	0.09993986
109	0xbdf33ef4	-0.11877242
110	0x3d1ffbcc	0.03905849
111	0xbd19188e	-0.037376933
112	0x3d2ca792	0.042151995
113	0xbdb85e25	-0.09002332
114	0x3d951cf8	0.07280916
115	0x3c6c93f1	0.014439569
116	0xbd9f8a49	-0.07790048
117	0x3d8e0039	0.06933636
118	0x3d30bb18	0.043147177
119	0xbdb75721	-0.089521654
120	0x3de5e8be	0.11226033
121	0x3d74892c	0.05970113
122	0xbdb04989	-0.08607776
123	0x3ddb8817	0.107193165
124	0xbdc8c342	-0.098028675
125	0xbd4e8317	-0.050417986
126	0x3cbcda35	0.023053268
127	0xbc9d675d	-0.019214327
128	0x3de89695	0.11356846
129	0x3d17ee90	0.037092745
130	0xbdb7142c	-0.08939394
131	0x3e013c2c	0.1262061
132	0xbce9c5f2	-0.02853677
133	0xbd1a12c9	-0.03761557
134	0x3df86d8d	0.1213027
135	0xbdcc4050	-0.09973204
136	0x3d5b04f0	0.053471506
137	0x3d0e803c	0.034790263
138	0x3dafd72a	0.08585961
139	0x3db443ff	0.08802032
140	0x3d9b4f10	0.07583439
141	0x3da23506	0.0792027
142	0x3da36c82	0.079796806
143	0x3d43cec5	0.047804613
144	0x3ca4fe62	0.02014083
145	0x3d8acfdd	0.06777928
146	0x3c1b37b2	0.009473728
147	0x3d8a7ff9	0.0676269
148	0x3d859011	0.06521619
149	0x3d0b66a1	0.03403342
150	0x3dc202ef	0.09473216
151	0x3d56effd	0.052474964
152	0x3d57b150	0.052659333
153	0x3d530b83	0.05152465
154	0xbd69d22f	-0.057085212
155	0xbcdbfff5	-0.026855448
156	0x3daf5beb	0.08562454
157	0x3d77b25d	0.060472835
158	0xbc82d691	-0.015971454
159	0xbd8c8ee3	-0.06863191
160	0x3df8cbb9	0.12148232
161	0xbdf806a7	-0.12110644
162	0xbc10bc86	-0.00883401
163	0x3d923c0d	0.0714036
164	0x3de1d98b	0.11027821
165	0xbcdba809	-0.026813524
166	0xbd748038	-0.05969259
167	0x3b3c2065	0.0028705832
168	0x3e02f06a	0.12787023
169	0xbda2ca3e	-0.07948731
170	0x3da298be	0.079392895
171	0x3ddb00d5	0.10693518
172	0xbb34668b	-0.002752694
173	0xbce8b549	-0.028406756
174	0x3bc7491e	0.0060817143
175	0x3ce095f5	0.027415255
176	0x3e0620d5	0.13098462
177	0xbce04eaa	-0.02738126
178	0xbd76b389	-0.06022981
179	0x3d1635da	0.03667245
180	0xbdf22b84	-0.11824706
181	0xbd9086e5	-0.07056979
182	0x3cc00ef1	0.023444625
183	0x3d4e8c08	0.050426513
184	0xbcbb7309	-0.022882001
185	0x3d494ee6	0.04914751
186	0x3ddae4cc	0.10688171
187	0x3dba488d	0.09095869
188	0xbd87eaab	-0.06636556
189	0x3d837032	0.06417884
190	0x3df8784d	0.121323206
191	0xbdd58b19	-0.104269214
192	0x3d8cfbc7	0.0688396
193	0xbd6ba6da	-0.05753217
194	0x3db21da5	0.086970605
195	0xbd965ff3	-0.073425196
196	0x3d67a1cd	0.05655079
197	0x3ca6928b	0.020333549
198	0x3d0e2b9e	0.034709565
199	0x3da293a4	0.079383165
200	0xbb2fa31a	-0.0026800097
201	0xbc31f067	-0.010860539
202	0x3dcddcf3	0.10051908
203	0x3da2ef77	0.079558305
204	0x3d92cc75	0.07167903
205	0x3def3414	0.11679855
206	0xbc8f1558	-0.017466232
207	0x3d68eaa3	0.056864392
208	0xbb902e6f	-0.0044000666
209	0xbdb6de1a	-0.08929081
210	0x3da1bf2a	0.0789779
211	0xbd6d9118	-0.0579997
212	0x3d480f80	0.048842907
213	0x3dd961f1	0.10614384
214	0xbdbccb91	-0.09218515
215	0x3d99f9af	0.075183265
216	0x3dbc8a17	0.09206026
217	0xbce56544	-0.028002389
218	0x3dc79daf	0.09746873
219	0xbd9d09f3	-0.07667913
220	0x3e071222	0.13190511
221	0x3de46313	0.111517094
222	0x3d13e39e	0.036105745
223	0x3d8da05b	0.06915351
224	0x3df085c3	0.11744263
225	0x3d341188	0.04396203
226	0x3dbdaadd	0.09261105
227	0x3d707a09	0.05871013
228	0x3ced7fb8	0.028991565
229	0x3dc98801	0.09840394
230	0x3dffb20f	0.12485134
231	0x3d120dc2	0.03565765
232	0xbcaacdd6	-0.020850103
233	0x3d8b44af	0.0680021
234	0xba867435	-0.0010258021
235	0x3da2ecbc	0.0795531
236	0xbd293ecb	-0.04131965
237	0x3d23ea95	0.040018637
238	0xbb0919b3	-0.002091986
239	0x3de0b421	0.10971857
240	0x3d5f4edb	0.05451856
241	0x3dc9d1a4	0.09854439
242	0xbd4683f9	-0.048465703
243	0xbdbb4907	-0.09144788
244	0x3da8a358	0.0823428
245	0xbd7d0a5c	-0.061777458
246	0x3d1f00e6	0.038819216
247	0xbd3a9166	-0.04554882
248	0xbcba7b0f	-0.022763757
249	0xbc986915	-0.018604795
250	0xbddec728	-0.1087783
251	0xbd9be5a5	-0.076121606
252	0x3de93f71	0.113890536
253	0x3dc81907	0.097703986
254	0x3daaef90	0.08346474
255	0x3dbd23f3	0.092353724

mlp.2.weight f4 [1, 300]
0	0xbe90cf43	-0.28283128
1	0x3de665bb	0.11249872
2	0x3e19d1eb	0.15021484
3	0x3e128e2e	0.1431205
4	0x3dd4b7ae	0.103865966
5	0x3d8b6294	0.06805912
6	0x3e1f002b	0.15527408
7	0xbea654f8	-0.324867
8	0x3e075398	0.13215482
9	0xbf14eab1	-0.5817061
10	0x3e0c8af7	0.13724886
11	0x3de7a19a	0.1131012
12	0xbe9ea888	-0.30987954
13	0x3dd655d0	0.10465586
14	0x3d8b232b	0.06793817
15	0xbe74ec5a	-0.23918286
16	0x3ddecb73	0.108786486
17	0xbf16b055	-0.5886281
18	0x3e0edce2	0.13951448
19	0x3e2633c8	0.1623069
20	0x3dfd131d	0.12357161
21	0x3de42691	0.111401685
22	0x3dbf1c4e	0.093315706
23	0x3e829ed2	0.25511795
24	0x3e529d8c	0.20567912
25	0x3da6c3cf	0.08142816
26	0x3e1ec8d0	0.15506291
27	0xbf25ac9c	-0.64716506
28	0x3e0ecbf6	0.13944992
29	0x3e5a7e93	0.21337347
30	0x3dfaffb9	0.122558065
31	0x3e1d80fd	0.15381236
32	0xbf10cad0	-0.5655947
33	0x3e0b5c06	0.13609323
34	0x3d96515d	0.073397376
35	0x3d904bd4	0.07045713
36	0x3df8d905	0.12150768
37	0x3dcbfd02	0.09960367
38	0x3e1dba1d	0.15403028
39	0x3ecbec5c	0.39828765
40	0x3d2cc216	0.042177282
41	0xbd16b24a	-0.036791123
42	0x3dcedf39	0.1010117
43	0x37e82a7c	2.7676339e-05
44	0x3df6eade	0.12056516
45	0x3e6e5877	0.23275934
46	0x3e929d13	0.28635463
47	0x3d875025	0.06607083
48	0x3d9bad1d	0.07601378
49	0xbea1e12b	-0.31617102
50	0x3dde8125	0.10864476
51	0x3d746a52	0.059671707
52	0x3e1e9d9f	0.15489815
53	0xbf2b2e4f	-0.66867536
54	0x3e39519a	0.18097535
55	0x3e13b9b3	0.14426307
56	0x3dd7f0ed	0.10544
57	0x3d386796	0.045020662
58	0x3e222e79	0.1583804
59	0x3dcc0491	0.099618085
60	0x3dbd0d42	0.09231044
61	0x3e115cd5	0.14195569
62	0xbf0cb3b0	-0.5496168
63	0xbe72ffcf	-0.23730396
64	0xbe73d598	-0.23811948
65	0x3df3ad62	0.118983045
66	0xbeedf50d	-0.4647602
67	0xbf233872	-0.63758004
68	0xbf031cf5	-0.5121606
69	0x3dd42a8e	0.10359679
70	0x3d7455c1	0.059652094
71	0x3d75c8de	0.060006015
72	0xbedf7ce8	-0.43649983
73	0x3dfa0465	0.122078694
74	0x3e09d2f5	0.1345938
75	0xbf25a22d	-0.64700586
76	0xbeaf203f	-0.3420429
77	0x3e09b9ce	0.13449785
78	0x3e00a797	0.1256393
79	0x3de39a2b	0.111133896
80	0xbef71173	-0.482555
81	0x3dae76d3	0.08518758
82	0x3df17041	0.11788989
83	0xbf0793ba	-0.5295979
84	0x3e1ad5bd	0.15120597
85	0xbec06b3f	-0.37581822
86	0x3e0d44aa	0.13795725
87	0x3de57d2c	0.11205515
88	0x3d398e5b	0.045301776
89	0xbe910a16	-0.28328007
90	0x3df9f5f2	0.122051135
91	0x3f10bef0	0.5654135
92	0x3dbc06cd	0.09180985
93	0xbf05ba09	-0.5223699
94	0xbe5a81e6	-0.21338615
95	0x3f30088f	0.6876306
96	0x3ddced1b	0.10787412
97	0x3d446570	0.0479483
98	0x3e1b19a7	0.15146504
99	0x3dbbc182	0.09167768
100	0x3deefe82	0.11669637
101	0x3dcf0efe	0.101102814
102	0x3dfcc736	0.12342684
103	0xbecb1c0c	-0.39669836
104	0xbdf80ca0	-0.12111783
105	0x3e4f53e4	0.20246845
106	0x3d7cafaa	0.061690964
107	0x3e1f8b1b	0.15580408
108	0x3e071ef3	0.131954
109	0xbe9d70a7	-0.3075001
110	0x3e1fcc65	0.15605314
111	0xbe74aa2f	-0.23893045
112	0x3dbf7f2b	0.09350427
113	0xbf0ec666	-0.5577148
114	0x3e00ca63	0.12577204
115	0x3dc32643	0.09528782
116	0xbe35257b	-0.17690079
117	0x3db6e56b	0.08930477
118	0x3dfc53b5	0.12320653
119	0xbf16df10	-0.58934116
120	0x3da6a5f5	0.081371225
121	0x3e20897f	0.1567745
122	0xbe826612	-0.25468498
123	0x3d928a23	0.07155254
124	0xbf0e493d	-0.555805
125	0xbe970cdd	-0.29502
126	0x3ea60637	0.32426617
127	0xbed97a42	-0.42476088
128	0x3e2f7c48	0.17137253
129	0x3dd5a4c8	0.1043182
130	0xbf1e8072	-0.6191474
131	0x3d7e0039	0.06201193
132	0xbe57aa06	-0.21060953
133	0xbed66a6b	-0.41878065
134	0x3d594295	0.053042013
135	0xbec91935	-0.39277044
136	0x3e12cb8f	0.14335464
137	0x3dbc5435	0.09195749
138	0x3dd62dbc	0.10457942
139	0x3d88842d	0.066658355
140	0x3d8628c3	0.065507434
141	0x3dbc7b31	0.092031844
142	0x3d043311	0.032275263
143	0x3e2cef2c	0.16888112
144	0x3daea802	0.08528139
145	0x3dc150b6	0.094392225
146	0x3e8e87f3	0.27838096
147	0x3e0d3c40	0.13792515
148	0x3e352d7f	0.17693137
149	0x3afc65c5	0.0019256404
150	0x3de6fabf	0.11278295
151	0x3d7f385b	0.062309604
152	0x3e18af60	0.1491065
153	0x3e47da24	0.19516808
154	0xbee9832a	-0.45607883
155	0xbe641f53	-0.22277574
156	0x3de2b47c	0.11069581
157	0x3e15021a	0.14551583
158	0xbe47f2ea	-0.19526258
159	0x3eb9327c	0.3617133
160	0x3d6abdca	0.057309903
161	0xbf0fb793	-0.5613949
162	0x3e8d0827	0.27545282
163	0x3e0bb33b	0.1364259
164	0x3d7e1a56	0.062036835
165	0xbe1a8b4e	-0.15092203
166	0xbe40e434	-0.18837053
167	0x3e9f3b58	0.31099963
168	0x3da25c12	0.07927717
169	0xbefc0f38	-0.4923036
170	0x3d8b043e	0.067879185
171	0x3da39132	0.07986678
172	0xbd8806c5	-0.06641916
173	0x3e78019c	0.24219364
174	0xbe545ade	-0.20737788
175	0x3e6698ff	0.22519301
176	0x3e1187d5	0.14211972
177	0xbe920892	-0.28522164
178	0xbf18792c	-0.59559894
179	0x3dc19ae3	0.094533704
180	0xbef33735	-0.47503057
181	0xbef16851	-0.471499
182	0x3dacfe65	0.084469594
183	0x3e47637a	0.19471541
184	0xbea0c1a1	-0.31397727
185	0x3dded3f2	0.10880269
186	0x3d896b09	0.067098685
187	0x3e0458e5	0.12924536
188	0xbea6535f	-0.32485482
189	0x3e479f70	0.19494414
190	0x3dbd1f7d	0.092345215
191	0xbe8cbd42	-0.27488142
192	0x3e3d80ed	0.18506213
193	0x3e9ba914	0.30402434
194	0x3e20e90e	0.15713903
195	0x3f1177d9	0.568235
196	0x3e169f27	0.1470915
197	0x3ed7f046	0.42175502
198	0x3d868444	0.065681964
199	0x3dd040a4	0.10168579
200	0x3e5ac8c3	0.21365647
201	0x3ee12751	0.4397531
202	0x3d948d44	0.07253507
203	0x3d99faee	0.07518564
204	0x3ddd1b80	0.10796261
205	0x3dcb3dbb	0.099238835
206	0xbe1f9368	-0.15583575
207	0x3de30526	0.11084966
208	0xbedc1a3b	-0.42988762
209	0xbea55760	-0.32293224
210	0x3ce84479	0.028352963
211	0x3eb05005	0.3443605
212	0x3e138a3e	0.14408204
213	0x3dfe03f1	0.124030955
214	0xbf29b079	-0.662849
215	0x3dc2bae0	0.095083
216	0x3e07b6e2	0.13253358
217	0xbe971837	-0.29510662
218	0x3e0d9821	0.13827564
219	0xbe14c933	-0.14529876
220	0x3de4cbc8	0.11171681
221	0x3d2d880d	0.042366076
222	0x3dfa6dbc	0.122279614
223	0x3e0cfb2d	0.13767691
224	0x3e47805a	0.19482556
225	0x3e28b4b5	0.16475184
226	0x3db999ab	0.09062513
227	0x3d8025fb	0.06257244
228	0x3d885ea1	0.06658674
229	0x3dc95373	0.0983037
230	0x3dd15b9b	0.102225505
231	0x3d95faf0	0.07323253
232	0xbeed7ff3	-0.4638668
233	0x3e06ea74	0.13175374
234	0xbd9b6d1c	-0.0758917
235	0x3e11a032	0.14221266
236	0x3e45b3e0	0.19306898
237	0x3e049c87	0.12950335
238	0x3ea1dade	0.31612295
239	0x3dd76fed	0.10519395
240	0x3e00abc4	0.12565523
241	0x3e71bc1f	0.23606919
242	0xbf064b4e	-0.52458656
243	0xbf14c650	-0.581151
244	0x3ded828d	0.11597166
245	0xbeac0898	-0.33600307
246	0x3dfe6183	0.12420943
247	0xbea655db	-0.32487378
248	0xbe7ff3ba	-0.24995318
249	0xbe8a675a	-0.27031976
250	0xbf571de7	-0.8403
251	0xbe9a2f75	-0.30114332
252	0x3dfce38b	0.12348088
253	0x3d7c4538	0.06158945
254	0x3dc7914b	0.09744509
255	0x3df08489	0.11744029
